model/keypoint_classifier/keypoint_classifier.tflite (tflite, 6684 bytes, 6 tensors)

sequential_3/dense_9/BiasAdd/ReadVariableOp f4 [20]
000000 44 53 e4 3e 98 3f af 3e 19 2e 90 3d d7 07 c7 3d
       0.44594777 0.34228206 0.070400424 0.09718292
000010 fd 86 c5 bd 87 b4 9a 3e 9a fc c1 be 05 db 4d be
       -0.096448876 0.30215856 -0.37888032 -0.2010308
000020 02 c4 e6 3d e5 23 e6 bb 0d 24 d2 3e e6 86 47 be
       0.11267854 -0.007023322 0.4104313 -0.19485053
000030 26 0f d0 3e 6e f0 74 3e 2c 85 7e 3d dc 03 e4 be
       0.40636557 0.23919842 0.06213872 -0.44534194
000040 dd 25 fc 3e 09 d5 e1 be b0 dc 40 3e 4c 41 82 3e
       0.49247637 -0.44107845 0.18834186 0.25440443

sequential_3/dense_11/BiasAdd/ReadVariableOp f4 [6]
000000 bf bb f3 3e cf 97 b8 3d 32 03 43 be 10 21 9f bd
       0.47604176 0.0901333 -0.19044188 -0.07769978
000010 75 87 34 bd 7b 39 53 3c
       -0.044074494 0.012892122

sequential_3/dense_10/BiasAdd/ReadVariableOp f4 [10]
000000 c5 f7 49 bc 09 9f e6 3d bf 66 7e 3e ea a8 09 3f
       -0.012327139 0.11260802 0.24843882 0.5377337
000010 49 4f c0 3e 01 19 14 3e cf 23 8c 3e f7 b7 47 3e
       0.3756049 0.14462663 0.2737107 0.19503771
000020 2e b7 d6 3e 31 a3 7e 3e
       0.4193663 0.2486694

sequential_3/dense_9/MatMul f4 [20, 42]
000000 b4 24 76 be f9 c9 9b be 67 55 74 ba 1c 00 cf bd
       -0.24037439 -0.3042753 -0.0009320587 -0.10107443
000010 9b 59 8f 3c 6a 68 39 be c1 fb c1 3d ff 8e 7a be
       0.017498782 -0.18106237 0.09471846 -0.24468611
000020 4e 4a 20 be e9 e3 86 bd 70 5e fe bd ae 9e 40 be
       -0.15653345 -0.06586439 -0.12420356 -0.18810531
000030 4e b7 f5 3d a2 d9 c3 bc 3c d4 d2 bc 3f 6c c4 be
       0.11997853 -0.023907486 -0.025735967 -0.38363835
000040 56 89 9f 3d e0 5f 29 bc 55 0e 0b 3e 8c ee 2b bd
       0.077898666 -0.0103378 0.13579686 -0.041975543
000050 e0 0e 9b bd 92 eb ed 3d 63 cb e1 bd d8 ad 8a 3e
       -0.075711966 0.11617197 -0.11025121 0.27085757
000060 4c 88 46 be 61 cc ad 3e 3c 99 af 3e 32 43 71 bd
       -0.1938793 0.3394499 0.34296596 -0.058901973
000070 b5 ed 64 bc a4 98 cd 3d 75 98 6e be 9d 4f 6d 3e
       -0.013972689 0.100388795 -0.23300345 0.23174901
000080 b5 48 5c be d2 d4 c4 3e 72 5a 62 3d c2 62 2a bd
       -0.2151211 0.3844362 0.055262037 -0.04159809
000090 bc cd 0d be 40 15 26 be 85 9f db bd aa 01 74 3e
       -0.13848013 -0.16219044 -0.10723785 0.2382876
0000a0 a6 c3 68 be 7a 1e e1 3e 9e ae 8d be 59 54 84 be
       -0.22730884 0.43968564 -0.27672285 -0.25845602
0000b0 4d a1 2b 3c c9 a5 b9 be ba 03 8e be 08 a7 b8 be
       0.010475469 -0.36259297 -0.27737218 -0.36064935
0000c0 6f c9 cf 3d 69 cb ea be 40 76 2d be b5 30 49 bd
       0.10145842 -0.45858315 -0.1693964 -0.049118716
0000d0 3d 38 1a be c4 b9 71 be b8 f6 4c 3e 34 3e 13 3d
       -0.15060516 -0.2360602 0.2001599 0.035947993
0000e0 6e c1 24 3e 78 5d 72 be e0 b4 93 be cb 55 af be
       0.16089413 -0.23668468 -0.28848934 -0.34245142
0000f0 c3 e3 58 3c 54 56 02 be db 98 c7 be 2e 0d 88 3e
       0.013237896 -0.12728244 -0.38983807 0.26572555
000100 dd 43 9c be e0 ae ad 3e f9 d2 cc be 58 c3 09 bd
       -0.30520526 0.33922482 -0.4000471 -0.03363356
000110 ea ce 08 be 50 ea 13 3d 32 33 e8 be 81 20 81 3d
       -0.13360181 0.03611213 -0.4535156 0.06305028
000120 18 5f cd bd 4c 2c 05 3e f5 9e 04 bf 5b 8f 8d 3e
       -0.10027903 0.13005179 -0.5180505 0.27648434
000130 c8 e9 fb 3b 97 72 8c be 04 8e 99 be 2d 7e cb 3d
       0.007687781 -0.27431175 -0.29991162 0.099361755
000140 c1 39 29 bc b8 3f 4c be ea 52 be be cd 20 49 be
       -0.010328711 -0.19946182 -0.37172633 -0.19641419
000150 1c 2a 53 3e 08 36 1c 3d 7d 06 2a 3e 90 90 bd be
       0.20621532 0.038137466 0.16604038 -0.37024355
000160 55 35 92 3e 67 19 5d be 11 ce 7c 3e d1 f1 48 be
       0.28556314 -0.21591721 0.24687983 -0.19623496
000170 fb dd e3 3e c3 c2 24 bd df f0 a7 be 20 20 af bc
       0.44505295 -0.0402248 -0.32800958 -0.021377623
000180 bb b2 7e be 47 1d c0 bd eb 61 9e be b1 d5 02 bd
       -0.24872868 -0.09380584 -0.3093408 -0.031942073
000190 c4 ab 42 be a8 0f cf bc 69 67 2d be a5 3c be bd
       -0.19010836 -0.02527602 -0.16933979 -0.09288911
0001a0 ed 85 9e 3e 22 9d 35 be 7b 00 45 be 3e 76 94 3d
       0.30961552 -0.17735723 -0.19238465 0.072491154
0001b0 8e fb b3 be 84 45 ac ba cc d2 3a bd a8 d5 27 3d
       -0.35152858 -0.0013143276 -0.045611188 0.040975243
0001c0 8c a2 99 3e d1 c5 24 bc 24 70 0d 3d 28 95 57 3d
       0.30006826 -0.010056929 0.034530774 0.05263248
0001d0 73 de 26 bf a1 90 63 3d e4 8f 78 be 70 02 ab 3d
       -0.6518318 0.05555785 -0.2427364 0.08350074
0001e0 9d 73 38 be 7a 99 9e 3d f9 7b 13 bf 2f 50 4e 3e
       -0.18012853 0.07744117 -0.5761104 0.20147775
0001f0 6c 98 84 bf a7 9d f1 3d 43 fb 97 be 32 ee 94 3e
       -1.0359015 0.11797648 -0.29683885 0.2908798
000200 18 0a 3e 3e d2 f0 ce be da b1 a7 3e 62 f7 94 3d
       0.18558538 -0.40418106 0.32752877 0.07273747
000210 51 46 cd 3e 01 cb 85 be cb 66 b9 3e ab 77 cd bd
       0.4009271 -0.26131442 0.36211237 -0.100325905
000220 1b 62 c7 3b 59 77 5a bd 18 71 83 be 63 8e 3f bd
       0.006084693 -0.053336475 -0.2567222 -0.04676665
000230 a3 c0 f1 be d5 f8 ca 3c 50 9f 8b be 9d 31 db bc
       -0.47217283 0.024776855 -0.27269983 -0.026757056
000240 53 0a 5c be 79 d0 42 be 6f b3 08 be 1d 0f b1 3c
       -0.21488313 -0.19024839 -0.13349698 0.021613652
000250 b0 21 ed bd 44 01 1f be 62 73 b3 be 97 57 53 3e
       -0.11578691 -0.15527827 -0.35048968 0.20638882
000260 47 cb c4 be 39 c3 d0 bd 87 1f 9c 3e e0 2d 74 3d
       -0.38436338 -0.10193486 0.30492803 0.059614062
000270 6a 57 97 be 0f f3 f8 3d 3c 71 0e bf 76 22 57 3e
       -0.2955888 0.12155735 -0.5564153 0.2100924
000280 f3 6e a8 be 31 1e 31 be 81 df ae be ca fb 42 3d
       -0.32897148 -0.17296673 -0.34154895 0.047603406
000290 db 6f ce be 82 d3 f3 3c 22 d5 2e bf 99 49 9c 3e
       -0.40319714 0.02976394 -0.68293965 0.305249
0002a0 e0 c3 81 3c f4 de e5 3d c6 f0 81 3e 61 23 16 3e
       0.01584047 0.112241656 0.25379008 0.14661933
0002b0 d0 84 1c 3e 30 df 20 3d 4b d6 07 3f 24 51 96 3e
       0.15285039 0.03927535 0.5306136 0.2935878
0002c0 82 cf 21 3f 1f 27 0f 3f 99 94 2a be 7c fe a2 be
       0.63207257 0.5591907 -0.16658248 -0.3183478
0002d0 6f e8 73 3d 0d 78 9c be 78 46 04 3e 00 5c 3d bd
       0.059547838 -0.3056034 0.12917507 -0.046230316
0002e0 95 dd 41 be f2 3a e8 3c b3 60 ed 3d c4 de 94 be
       -0.18932183 0.02834842 0.115907095 -0.29076207
0002f0 40 ca 9f 3e e0 10 39 bd 1b 37 a6 3e cd 52 0e be
       0.31208992 -0.04518211 0.32463917 -0.13898773
000300 5a fc bb bd 0f 81 3d 3e 55 b1 ae 3e 08 fe a5 be
       -0.091789916 0.18506263 0.3411967 -0.32420373
000310 63 75 b7 3e 2c 2e c5 bd 63 d9 3b 3d 11 d1 18 3c
       0.35831746 -0.09627947 0.045861613 0.009327189
000320 41 6a a1 3e e0 26 8d 3d 13 9b e1 3e e9 30 e8 bd
       0.31526378 0.068921804 0.44063625 -0.11337454
000330 24 e8 90 3e 9d 5a 9e 3d c3 f4 84 3e df 60 8b bd
       0.2830211 0.07732127 0.25967988 -0.06805586
000340 33 76 59 3e af 54 80 3e 00 f2 46 bd e8 66 1d 3e
       0.21236496 0.25064608 -0.048570633 0.15371287
000350 26 db c8 bd c9 7c dc bc 0f c7 55 be 6e 74 97 be
       -0.09807424 -0.026914971 -0.20876716 -0.29581016
000360 20 d6 f2 be 27 e9 be be 24 49 c1 be 6d 7e b3 be
       -0.4742899 -0.37287256 -0.37751114 -0.35057393
000370 ee 0d 33 be 0c 66 ff 3d 9b 09 10 be 22 7c 45 be
       -0.17485783 0.12470636 -0.14066164 -0.19285634
000380 bf 4a 75 3c 30 15 df 3d 32 ba 65 3e 85 90 7b be
       0.014971434 0.10892713 0.22434309 -0.24566849
000390 22 7e 76 be d2 e3 8b 3d 49 8b 4f be 98 e7 3e 3e
       -0.24071553 0.06830563 -0.20267977 0.18643034
0003a0 ba f5 16 be 13 29 5d 3e 20 79 c7 3d bc 19 77 3e
       -0.14742175 0.215977 0.097399 0.2413091
0003b0 9b b9 9e bd 5c a3 cd 3d af 0a 66 be 2a 4e 28 3e
       -0.07750245 0.10040924 -0.22465013 0.16436067
0003c0 de 54 92 bd 96 94 85 3e a1 a6 95 ba 0c a6 a2 3e
       -0.071450934 0.26089925 -0.0011417457 0.3176731
0003d0 4b bf 28 3e 8a 8c ec 3d a0 fc ba bd ba 6d 97 3d
       0.16479222 0.11550243 -0.09130216 0.073939756
0003e0 de 9e 02 be c9 ca 23 3e b9 a0 98 3d 83 31 aa 3e
       -0.12755916 0.15995325 0.074525304 0.332409
0003f0 a0 5c 2c 3e 10 e6 c3 3d 61 95 73 3c f9 3d e2 3e
       0.16832209 0.09565365 0.014867158 0.44187906

sequential_3/dense_10/MatMul f4 [10, 20]
000000 fc fd 5d be a1 d0 ba 3e bd 49 50 3f 92 93 f1 3e
       -0.21678919 0.36487296 0.81362516 0.471829
000010 62 c4 27 be bc 07 72 bd 4f 94 9d bd f6 c4 bf 3e
       -0.16383508 -0.059089407 -0.07694303 0.37454957
000020 10 5f 1f 3e 1b b7 40 3f ba cd 56 3e 80 05 21 3f
       0.15563607 0.75279397 0.20976916 0.6289902
000030 c5 26 5b be 73 7b 4c 3d 77 a8 11 be 9d f6 11 3f
       -0.21401508 0.049922418 -0.1422442 0.57016927
000040 17 ba 98 bd 73 5c db 3d 7c 57 45 be 48 c5 8e 3e
       -0.07457369 0.10710993 -0.19271654 0.2788489
000050 50 6e 05 3f e1 5f 32 3e 43 1a 49 3f 0b 3d 52 3f
       0.5212145 0.17419387 0.785557 0.82124394
000060 5e 1c 75 3e c4 7f 88 3c 0b f1 40 3d 8a da 69 3d
       0.23936602 0.016662486 0.047104876 0.05709318
000070 92 1b 9b bd 8a f2 7d 3e 07 c7 2d bd 62 07 04 3e
       -0.07573618 0.24799553 -0.042426135 0.12893441
000080 7c e9 aa bd ff 87 41 3f 01 de 65 be 3d cd af bd
       -0.08345315 0.7559814 -0.22447969 -0.08584068
000090 a6 86 ff 3e 2e 4c e7 bd e9 a7 00 3f 1f da 43 3e
       0.49907416 -0.11293827 0.5025621 0.19126175
0000a0 7b b3 29 bf 15 02 d5 be 1b 39 4c 3d f0 65 5f 3e
       -0.6628949 -0.4160315 0.049859148 0.2181623
0000b0 cb 1f 13 3f df 24 12 bf ee f8 bc 3e aa 3f d0 3e
       0.5747039 -0.5708751 0.36908668 0.40673572
0000c0 03 b2 2b bd 78 22 dc 3e 08 ea 6a be d2 2b 05 3f
       -0.041917812 0.42995048 -0.22940838 0.5201999
0000d0 ea 0e 00 3f 63 a4 1a 3e 70 64 24 3f 8a ed 3c 3f
       0.5002276 0.15101771 0.64215755 0.73799956
0000e0 89 4e 1c bf 87 b8 db 3e 46 8c 28 3c 87 dd 21 be
       -0.61057335 0.4291422 0.01028735 -0.15807162
0000f0 6c 20 16 3e 43 c3 94 3e fd 85 d4 be 16 a7 bf be
       0.14660805 0.29055223 -0.41508475 -0.37432164
000100 53 ac 09 bf 1e 44 c2 3e 72 47 a2 3d bd ad df be
       -0.5377857 0.37942594 0.07923783 -0.4368724
000110 47 bd 3d bf 33 b2 b0 be 8b 11 e2 bd 6d 00 b1 be
       -0.7411694 -0.34510955 -0.11038502 -0.34570637
000120 0c dc 45 be 69 f2 5e bd d4 f0 cc 3d 9a 7a 04 3f
       -0.19322222 -0.0544304 0.10006872 0.51749575
000130 ca 5c f5 be a2 76 b9 3e 54 7d 62 bf 2a 90 50 be
       -0.47922355 0.36223322 -0.88472486 -0.20367494
000140 86 b6 cf be cd f9 ac 3e 8d ae d0 bd b2 8c 09 3e
       -0.40568942 0.33784333 -0.10189543 0.13432577
000150 82 cb 47 bc f8 3b f9 bd cb 30 4d 3f f2 5a 9f bd
       -0.012194516 -0.12169641 0.8015258 -0.07781018
000160 d0 cf b2 be 14 d1 e2 bc b4 04 eb 3c d3 7c 9c 3d
       -0.34924173 -0.027687587 0.028688766 0.07640996
000170 a3 fd cd be c3 99 65 3e 69 14 e2 3d 6b dd b4 3e
       -0.40232572 0.22421937 0.11039049 0.35325179
000180 1c a5 d5 be f6 fd 04 3f 3c 0d 5e 3e 4b bc 2c 3f
       -0.4172753 0.51950014 0.21684736 0.6747481
000190 aa c9 a6 3d 04 93 96 3e b8 80 30 3e a9 eb 4a 3e
       0.08143933 0.2940904 0.17236602 0.1981646
0001a0 87 50 a9 3d 3f e1 e6 3e 4f 30 ba be e1 18 5c 3e
       0.082673125 0.45093724 -0.36364982 0.21493866
0001b0 c1 2b 55 3f 9a 8f 54 3e 67 09 f8 3e 61 cd e9 3e
       0.8326989 0.20757905 0.48444673 0.45664504
0001c0 0e b7 fc 3e 0a c3 90 be 1d 48 08 3d b4 cc 84 be
       0.4935841 -0.28273803 0.033271898 -0.25937426
0001d0 f1 bb 2d 3f d8 71 a2 be e4 20 3c 3e 4e fa 31 3e
       0.678649 -0.3172748 0.18371922 0.1738064
0001e0 d2 e0 ca 3e 91 55 fb 3e b3 69 aa bd 39 f4 ef be
       0.3962465 0.4908872 -0.08320942 -0.46866015
0001f0 cc 51 10 3e 2b 67 80 3d 28 61 e1 be ae ac 57 bd
       0.14093703 0.06269678 -0.44019437 -0.052654915
000200 a1 0b 83 be fa ea 75 be a8 4e 4d 3f b8 f3 c0 3c
       -0.2559481 -0.24015418 0.80198145 0.023553714
000210 4d 20 37 3e 5c 88 1c 3f 4a e8 cd 3e c3 d6 41 bd
       0.17883416 0.6114557 0.40216285 -0.047323953
000220 ba 16 39 3f 6b 58 a7 bb b2 7d ec 3e af 7c df 3c
       0.72300303 -0.005106976 0.46189648 0.027281133
000230 77 2c 1e 3c 92 b5 4a 3d 5b b6 88 be 9c de 13 bf
       0.009654156 0.049489565 -0.26701626 -0.5776155
000240 25 09 01 be 4e 8e 5e 3c 21 e2 ec bd 22 34 b8 be
       -0.12601145 0.013583733 -0.11566568 -0.35977274
000250 65 d9 b6 be d0 3c c4 be 2e c4 dc 3d c2 9f 79 bc
       -0.35712734 -0.38327646 0.10779606 -0.015235843
000260 95 16 45 3d a6 8c d3 bd 79 8a 91 3f a5 98 92 3e
       0.04811724 -0.10329561 1.1370384 0.28632084
000270 80 7d f0 3d 82 f9 ad 3c 95 d5 8d be 38 ef c5 3d
       0.11742687 0.021237139 -0.27702013 0.09664768
000280 1a 3b 7d 3e e0 d8 8b 3e d3 c6 eb bd fc 05 6d be
       0.24729577 0.273139 -0.11512532 -0.23146814
000290 b3 8b 01 3c 8b 19 21 3f 7a 9f f0 3c 55 59 f1 3c
       0.007906842 0.629296 0.02937292 0.029461542
0002a0 aa 98 7e be 10 c3 35 3e 71 04 07 3f bd 59 58 3e
       -0.24862924 0.17750192 0.5274115 0.21127982
0002b0 3c cf 3d 3d ba 17 0a 3f 6f 2d 30 bc 98 d3 8c 3b
       0.046340212 0.53942454 -0.01075302 0.004297685
0002c0 b1 45 02 3f e0 3a 0a bf 76 fe 8c 3e 42 18 09 3f
       0.5088759 -0.53996086 0.27537888 0.5355264
0002d0 f0 d0 2d 3f 59 dd e5 3c 8c 7c 86 be 98 c1 b3 3d
       0.6789694 0.028059648 -0.26266897 0.087771595
0002e0 e4 93 04 3e b9 b6 24 3f 94 e0 94 be 45 f6 2d be
       0.12947041 0.6434131 -0.2907759 -0.16988476
0002f0 b5 d2 c9 bc b9 da c7 3d 1f 52 f1 3e 93 15 80 be
       -0.024636606 0.09758515 0.47132966 -0.2501646
000300 47 d9 ea 3e 3d b0 16 3e 49 a7 05 be 07 83 b3 be
       0.45868894 0.14715667 -0.13052095 -0.35060903
000310 eb 6b 0a 3f 9d ac a8 be 33 b5 fb 3d e4 96 52 3e
       0.5407092 -0.32944193 0.122904204 0.20565373

sequential_3/dense_11/MatMul f4 [6, 10]
000000 c3 e2 6c 3d 9b a4 33 bf 83 0e 8a be d8 5a 6c 3f
       0.057833444 -0.70173043 -0.26964197 0.92326117
000010 f7 a0 42 3f 85 87 34 bf 11 00 5b be 84 85 0f 3d
       0.7602686 -0.70519286 -0.21386744 0.03503944
000020 10 83 ca 3e a6 0a 41 bf c6 15 17 3f ee f0 65 bf
       0.39553118 -0.75406873 0.590176 -0.89820755
000030 d2 37 4a 3f a7 08 a3 be 95 31 b8 be d4 80 e2 3e
       0.78991425 -0.3184254 -0.35975328 0.44238913
000040 f1 75 0c bf 9d a3 6b 3e 1d 68 2f bf 61 c7 b2 be
       -0.54867464 0.23011632 -0.6851824 -0.3491774
000050 af 73 dc be b9 40 6e bf 69 46 3d bf 75 59 55 be
       -0.4305701 -0.9306751 -0.7393556 -0.20834906
000060 ab 54 db be 4b 12 4f bd 2d 33 4f bf 1d c8 bb 3d
       -0.42838034 -0.050554555 -0.80937463 0.09169028
000070 fa c3 01 bf fe 36 c7 be b5 20 06 3f 4d 27 f5 3e
       -0.5068966 -0.38909143 0.52393657 0.47881547
000080 81 0d b6 3e 84 83 e5 bc bf aa 1b 3f 33 8a 02 bf
       0.35557178 -0.028016813 0.6080741 -0.50992125
000090 d7 90 02 be 03 b1 3f bf 66 af 01 be 47 78 43 bf
       -0.12750565 -0.74879473 -0.12664565 -0.76355404
0000a0 2f a8 61 bf 96 ac 4e be 6f 32 11 bf 22 c6 a7 3d
       -0.8814725 -0.20183024 -0.5671758 0.08192088
0000b0 e9 4c 12 be 8e ea 3f 3d 57 06 1c 3f 79 dd 99 3e
       -0.14287151 0.04685455 0.60947174 0.30051783
0000c0 53 7d 29 3f cf 84 05 3f cf a7 99 3e c2 86 27 3f
       0.66206855 0.52155775 0.3001084 0.6544
0000d0 f4 4a 44 bf 2d e8 01 bf 23 87 2b bf d0 36 2d 3f
       -0.7667687 -0.507449 -0.6700308 0.6766176
0000e0 dd 60 e1 3c a2 99 a2 bf e8 c6 b4 3e 52 90 cd 3e
       0.027512008 -1.2703135 0.35308003 0.4014917
