model/keypoint_classifier/keypoint_classifier.tflite (tflite, 6828 bytes, 6 tensors)

sequential_5/dense_17/BiasAdd/ReadVariableOp f4 [9]
0	0xbeeaa4c1	-0.45828822
1	0x3cebd95e	0.028790172
2	0xbe7af94a	-0.24509159
3	0xbe8ef584	-0.2792169
4	0x3f2dcc37	0.6788973
5	0x3f0bb334	0.5457032
6	0x3e27ad42	0.16374686
7	0xbf267ecb	-0.6503722
8	0xbde083ef	-0.10962664

sequential_5/dense_16/BiasAdd/ReadVariableOp f4 [10]
0	0x3f2c43eb	0.67291135
1	0xbc509a07	-0.0127320355
2	0x3ef17731	0.47161248
3	0x3f29cfc7	0.6633267
4	0x3ee221d6	0.4416644
5	0x3edf36e4	0.43596566
6	0x3e8923e2	0.2678519
7	0xbeacafeb	-0.33727965
8	0x3e8157f3	0.25262412
9	0x3ee04e54	0.4380976

sequential_5/dense_15/BiasAdd/ReadVariableOp f4 [20]
0	0xbe5f9063	-0.21832423
1	0x3d7fdbbe	0.06246542
2	0x3e591dde	0.212028
3	0xbeee459f	-0.46537492
4	0xbe933b1e	-0.2875604
5	0xbe2af7cf	-0.16696094
6	0x3ea5fd7b	0.32419953
7	0x3d74cd9a	0.05976639
8	0xbee9a6e5	-0.45635143
9	0xbe84d9ce	-0.25947422
10	0xbef6f9a2	-0.4823733
11	0x3e9e8b0c	0.3096546
12	0x3e86fd15	0.2636496
13	0xbddae90d	-0.10688982
14	0xbe8f4c91	-0.27988103
15	0x3e6e0df8	0.23247516
16	0xbec53f8c	-0.38525045
17	0xbf0b069e	-0.5430697
18	0xbe290f1f	-0.16509674
19	0xbd0a6ac0	-0.03379321

sequential_5/dense_15/MatMul f4 [20, 42]
0	0xbdbee71c	-0.09321424
1	0x3e832f1c	0.2562188
2	0xbdfbc8af	-0.12294137
3	0x3f2f0183	0.6836168
4	0x3d9ea074	0.07745448
5	0x3e9b3eb5	0.3032128
6	0x3e8f7870	0.28021574
7	0x3e14f76a	0.14547506
8	0x3e18b92a	0.14914384
9	0x3eafbb66	0.3432266
10	0xbdff72eb	-0.12473091
11	0x3e2e6016	0.17028841
12	0xbdb98909	-0.090593405
13	0x3e0a9ede	0.13537166
14	0xbe82c178	-0.2553823
15	0x3e16acc4	0.14714342
16	0xbf09ccb1	-0.5382796
17	0x3e228ece	0.15874788
18	0x3e9f73f3	0.3114315
19	0x3d9bded6	0.07610862
20	0xbe81bbee	-0.2533869
21	0xbda804fc	-0.08204076
22	0xbde93445	-0.11386923
23	0xbe971d40	-0.29514503
24	0x3c53b012	0.012920396
25	0xbf8624ea	-1.0480015
26	0x3eea7168	0.45789647
27	0x3e122385	0.14271362
28	0xbd2a60cb	-0.041596215
29	0x3d509979	0.050927613
30	0xbe7c675c	-0.24648803
31	0x3a23e71c	0.00062523945
32	0xbe2c51d5	-0.16828091
33	0xbefeb632	-0.4974838
34	0x3e9e9c72	0.30978733
35	0x3c756307	0.014977223
36	0xbc3eb4e4	-0.011639807
37	0x3d63a58e	0.055577807
38	0xbdcf1c27	-0.101127915
39	0xbd912dc4	-0.07088807
40	0x3e27f395	0.16401513
41	0xbe09dc24	-0.13462883
42	0xbde4be14	-0.11169067
43	0xbe26dda9	-0.16295494
44	0x3dfcc07c	0.12341401
45	0x3ea3f280	0.3202095
46	0xbe80bd96	-0.25144643
47	0x3e5b7f97	0.2143539
48	0xbe93f1f7	-0.28895542
49	0x3e164e66	0.14678344
50	0xbf7aada1	-0.97921187
51	0x3e458486	0.19288835
52	0x3db54710	0.08851445
53	0x3da4c3df	0.08045172
54	0x3e6ab9a6	0.22922382
55	0xbddc8e57	-0.10769337
56	0x3e4c74db	0.19966452
57	0xbe995698	-0.29948878
58	0x3e45d628	0.19319975
59	0xbee888fe	-0.45417017
60	0xbb1ce655	-0.0023941
61	0x3d769508	0.06020072
62	0xbdbacf4b	-0.09121569
63	0x3ce3c07a	0.02780174
64	0xbe3a3cfa	-0.18187323
65	0x3e7fba13	0.24973325
66	0xbe7352ef	-0.23762105
67	0x3e3ddc60	0.18541098
68	0x3c753ab1	0.014967606
69	0xbe3072e3	-0.17231326
70	0xbe1523df	-0.14564465
71	0x3e299d3f	0.16563891
72	0xbe81f28f	-0.2538037
73	0x3e1eeb37	0.15519415
74	0xbdb364da	-0.0875947
75	0x3cff2653	0.031146204
76	0x3e9026df	0.28154656
77	0xbe9203f8	-0.28518653
78	0xbdadadd8	-0.08480424
79	0x3dade174	0.084902674
80	0xbdee5bc4	-0.11638597
81	0x3e201062	0.1563125
82	0xbbdc60eb	-0.0067254207
83	0xbd02accd	-0.031903077
84	0xbe26c912	-0.1628764
85	0x3cf78710	0.03021577
86	0xbe6745d0	-0.22585225
87	0xbd2e0260	-0.042482734
88	0xbd4c922b	-0.049944084
89	0x3e39df99	0.18151702
90	0x3e983ed7	0.29735443
91	0xbe002b8a	-0.12516609
92	0x3f21a624	0.63144135
93	0xbdef2c4e	-0.11678372
94	0x3e653336	0.22382817
95	0x3cc8234c	0.024430893
96	0xbee5f0b9	-0.4491022
97	0xbbdc043e	-0.006714373
98	0xbdb8c2b6	-0.09021513
99	0xbc444725	-0.011979853
100	0xbe30b3da	-0.17256108
101	0x3cb04720	0.02151829
102	0x3e672721	0.2257352
103	0x3e70fbd3	0.23533563
104	0xbe8ac079	-0.2709997
105	0xbe8352ae	-0.25649017
106	0x3edf15fd	0.43571463
107	0xbf03451a	-0.51277316
108	0x3f30e60b	0.6910102
109	0xbeaee3f9	-0.34158304
110	0x3e029f98	0.12756193
111	0x3e44f887	0.1923543
112	0x3e542430	0.2071693
113	0x3e372da3	0.17888503
114	0x3d55076a	0.052009024
115	0x3e836cc5	0.25668922
116	0x3e6ce684	0.2313481
117	0x3eb09261	0.34486678
118	0x3e88fc42	0.26754957
119	0x3e5b18e0	0.21396208
120	0xbd977fcb	-0.073974214
121	0x3e625c15	0.22105439
122	0xbe0618c2	-0.13095382
123	0x3eb4453d	0.35209075
124	0xbda47237	-0.08029597
125	0x3e2fd0a0	0.17169428
126	0x3d3c0820	0.045906186
127	0x3d998ee8	0.0749796
128	0xbd302b13	-0.04300983
129	0x3f08aa3d	0.53384763
130	0xbe548906	-0.20755395
131	0x3e8e7033	0.27819976
132	0xbc06067e	-0.008180259
133	0x3dc6c400	0.09705353
134	0x3e43ac7f	0.19108771
135	0x3e7e4369	0.24830402
136	0x3dd37de7	0.10326748
137	0xbe54202f	-0.20715402
138	0xbe2525bc	-0.16127676
139	0x3d90e82d	0.07075534
140	0xbe1d1d58	-0.15343225
141	0x3e665fab	0.22497432
142	0xbda5a5b6	-0.080882475
143	0x3e70103b	0.23443691
144	0x3e2d8ae4	0.16947514
145	0xbd2bb321	-0.041918878
146	0xbedb397d	-0.42817298
147	0x3cd59aaf	0.026074735
148	0xbf19915f	-0.59987444
149	0xbe9f3d02	-0.31101233
150	0xbe882256	-0.26588696
151	0xbe68eaf6	-0.2274588
152	0x3d9dd1e3	0.07706048
153	0xbc93d140	-0.018044114
154	0xbd392126	-0.04519763
155	0xbdbe480b	-0.09291085
156	0xbcaf0085	-0.021362552
157	0xbeaa0434	-0.33206332
158	0xbcb6e4a0	-0.022325814
159	0xbeaf3853	-0.3422266
160	0x3c098b84	0.0083950795
161	0xbe0f9e57	-0.14025246
162	0x3d0c6543	0.03427626
163	0x3d5bdf99	0.053680036
164	0x3ead3127	0.33826563
165	0xbe9c7940	-0.30561256
166	0x3e2e7fcd	0.1704094
167	0xbee3d201	-0.44496158
168	0x3d963458	0.073342025
169	0xbe889a18	-0.26680064
170	0x3e8f1a39	0.27949694
171	0x3d4d9b3f	0.050196882
172	0x3da17b18	0.078848064
173	0x3e566f3d	0.20940872
174	0xbeea3a9c	-0.4574784
175	0x39cfede5	0.00039659362
176	0xbecac50c	-0.3960346
177	0x3c04a60c	0.008096229
178	0x3f0e7fe3	0.5566389
179	0x3e30029a	0.17188492
180	0x3d88779f	0.06663441
181	0x3e267002	0.16253665
182	0xbd542e97	-0.051802244
183	0x3dfc48ed	0.12318597
184	0xbd7122fb	-0.05887125
185	0x3df5ed74	0.12008181
186	0x3f0bb56c	0.545737
187	0x3e8ee544	0.2790929
188	0xb9f715fb	-0.00047127888
189	0x3e6f8eb2	0.23394278
190	0x3df5aae3	0.11995485
191	0xbd64d4ab	-0.05586688
192	0xbc4eb70e	-0.012616886
193	0xbf0e7fc2	-0.5566369
194	0xbd4c53d6	-0.04988464
195	0x3e4319de	0.19052836
196	0x3d2bf2d0	0.04197961
197	0xbdad8cb6	-0.08474104
198	0x3e94802a	0.2900403
199	0xbef44ce0	-0.477149
200	0x3f08ed20	0.53486824
201	0xbf03863a	-0.5137669
202	0xbe415681	-0.18880655
203	0x3edc07e0	0.42974758
204	0xbdb4e138	-0.088320196
205	0x3dc374cb	0.09543761
206	0x3e2b2c25	0.16716059
207	0xbed889d8	-0.42292666
208	0x3f1e387f	0.61804956
209	0xbf051659	-0.51987225
210	0xbe462d30	-0.19353175
211	0xbe9e43a4	-0.3091098
212	0x3e24285a	0.16031018
213	0xbf49bc32	-0.7880279
214	0x3e0019c5	0.1250983
215	0xbed8f4d1	-0.4237428
216	0x3b357349	0.0027687124
217	0xbf1d6624	-0.6148398
218	0x3d9e0de2	0.07717492
219	0xbee03b8a	-0.43795425
220	0x3ec5f258	0.38661456
221	0xbc5589d2	-0.013033347
222	0x3f148b75	0.58025295
223	0x3d0b356e	0.0339865
224	0x3f22bd0a	0.635697
225	0x3e4a5bdd	0.19761606
226	0x3f3347e8	0.70031595
227	0x3ca7184d	0.02039733
228	0x3df482aa	0.11938985
229	0x3db785b7	0.08961051
230	0xbe0aa4b2	-0.13539389
231	0x3e93d10d	0.2887043
232	0xbe333479	-0.17500485
233	0x3e3e073b	0.18557446
234	0xbe5e05db	-0.21681921
235	0x3e47357d	0.19453998
236	0xbdeeb4b0	-0.11655557
237	0x3e4bcb1a	0.19901696
238	0xbe7b8fb4	-0.24566537
239	0xbe08b4ad	-0.13350172
240	0xbde82313	-0.11334815
241	0xbd9d0696	-0.07667272
242	0x3e96c6ab	0.29448447
243	0xbe16de5e	-0.14733264
244	0x3d9f3d54	0.07775369
245	0xbe8ddedd	-0.27709094
246	0xbe792c02	-0.24333194
247	0xbd5797a6	-0.052634858
248	0x3da0a750	0.07844412
249	0xbeef8e15	-0.46788087
250	0x3e5f7556	0.21822104
251	0xbd52af07	-0.05143645
252	0xbe90806a	-0.28222972
253	0xbdba48fc	-0.09095952
254	0xbe02d3b4	-0.12776071
255	0xbedd8ddc	-0.43272293

sequential_5/dense_16/MatMul f4 [10, 20]
0	0xbd71e758	-0.059058517
1	0x3f4eb9bd	0.80752164
2	0xbf210c69	-0.6290956
3	0xbe19f83a	-0.15036097
4	0x3ceeb623	0.029139584
5	0xbe02e338	-0.1278199
6	0x3e56b478	0.20967281
7	0x3ed13ee6	0.408683
8	0x3e42fb16	0.19041094
9	0x3e5b037e	0.21388051
10	0xbf369ac4	-0.71329904
11	0xbb8453f7	-0.0040383297
12	0xbe92ca45	-0.28669944
13	0x3b551f1d	0.0032519766
14	0xbde6f395	-0.11276928
15	0xbe5aa905	-0.21353538
16	0xbe868ec7	-0.26280805
17	0xbd17860c	-0.03699307
18	0x3f0702dd	0.52738744
19	0xbe624c67	-0.22099458
20	0x3f1e044f	0.61725324
21	0x3dc6f571	0.09714783
22	0x3ec32105	0.3811113
23	0x3efa44f5	0.48880735
24	0x3f4707f2	0.777465
25	0xbe5b7a10	-0.21433282
26	0x3d180492	0.037113734
27	0xbe9a674b	-0.3015693
28	0xbf27a351	-0.65483576
29	0x3e3d2a14	0.18473083
30	0x3c59db1d	0.01329687
31	0xbf1839ba	-0.59463084
32	0xbe77f170	-0.24213195
33	0x3eb1cb95	0.34725633
34	0x3f303ef8	0.6884608
35	0xbf485fbf	-0.78271097
36	0x3e99f9c0	0.30073357
37	0x3f0f176d	0.5589512
38	0x3f203328	0.6257806
39	0x3e4231b6	0.18964276
40	0x3d9749ef	0.073871486
41	0x3f7a101d	0.97680837
42	0xbde54ac4	-0.11195901
43	0x3e937b76	0.2880513
44	0xbba2e017	-0.0049705612
45	0xbdbab40e	-0.09116374
46	0x3f2576ca	0.6463438
47	0x3f329953	0.69765204
48	0x3e926447	0.2859213
49	0x3f3c88e3	0.7364637
50	0x3da44a61	0.08021999
51	0xbcf83cd0	-0.030302435
52	0xbf085d74	-0.532676
53	0x3d0fc6aa	0.03510157
54	0xbd3e2836	-0.046425067
55	0xbed0d79a	-0.4078949
56	0x3ee1109c	0.43957984
57	0x3d59c91a	0.0531703
58	0xbc0bc745	-0.008531396
59	0xbe149ca5	-0.1451288
60	0xbd111414	-0.03541954
61	0x3d13bdfd	0.03606986
62	0x3ecbe3a9	0.39822128
63	0xbe2cc486	-0.16871843
64	0xbe0c6634	-0.13710862
65	0xbe87b5c6	-0.2650587
66	0xbc87e37d	-0.016587967
67	0x3ddf2f94	0.10897747
68	0x3ceaff4f	0.028686194
69	0x3b2e89b7	0.0026632377
70	0xbd9d26f6	-0.07673447
71	0x3eba4f61	0.36388686
72	0x3f652caa	0.89521277
73	0x3e6d4452	0.23170593
74	0xbf11044d	-0.5664719
75	0x3e83e3cb	0.2575973
76	0x3d9969af	0.07490861
77	0xbf11bf59	-0.569326
78	0x3ddbf7a7	0.10740595
79	0x3ea6116e	0.32435173
80	0x3ee3889c	0.44440162
81	0x3e16f8cd	0.14743347
82	0x3f17a660	0.59238243
83	0x3e325e65	0.17418821
84	0xbcc7c588	-0.024386182
85	0xbe989178	-0.29798484
86	0x3ef68486	0.48147982
87	0x3e1adda6	0.15123615
88	0xbee6e6a5	-0.45097843
89	0xbf2ad4e4	-0.66731095
90	0x3ec09a97	0.37617943
91	0x3e924001	0.28564456
92	0x3f2df537	0.67952293
93	0x3e5fd511	0.21858622
94	0xbf532ebf	-0.82493204
95	0x3efcd0eb	0.49378142
96	0x3e780fc4	0.24224764
97	0xbdc37a9f	-0.095448725
98	0xbf6db775	-0.9285806
99	0x3e895d6a	0.26829082
100	0x3e3f8416	0.1870273
101	0x3e04ea31	0.12979962
102	0x3f0107eb	0.50402707
103	0x3e00b3be	0.12568566
104	0x3f3e0cb5	0.7423814
105	0x3f31e61d	0.6949175
106	0xbd9aa7bc	-0.07551524
107	0xbef30190	-0.4746213
108	0xbefb4b20	-0.49080753
109	0xbe46d901	-0.19418718
110	0xbee3888f	-0.44440123
111	0xbf085b3e	-0.53264225
112	0xbf1404de	-0.57819927
113	0x3f235b81	0.638115
114	0x3ef1f21a	0.4725502
115	0x3e7e5b83	0.24839596
116	0xbec84d64	-0.39121544
117	0x3e3893f8	0.18025196
118	0x3ee962d0	0.455832
119	0x3eeb8350	0.4599862
120	0xbd8494b7	-0.064736776
121	0xbb8e8342	-0.0043491432
122	0x3e17ff6b	0.14843528
123	0x3ce739a3	0.028225726
124	0x3bc5dc02	0.00603819
125	0x3ef70777	0.48247883
126	0x3ee8a065	0.4543487
127	0x3f2c1bcb	0.6722991
128	0x3f343e2f	0.70407385
129	0x3e988a31	0.29792932
130	0x3f2a64f6	0.66560304
131	0xbe4b1dfd	-0.19835658
132	0xbf187032	-0.59546196
133	0x3ed45f50	0.41478968
134	0xbdeffb0d	-0.11717806
135	0xbf88ab5b	-1.0677294
136	0x3e703ddf	0.23461102
137	0x3e85074c	0.2598213
138	0x3ea63a84	0.3246652
139	0x3eb3662e	0.35038894
140	0x3f88ecf2	1.069731
141	0x3e5cf470	0.2157762
142	0xbd96e0dd	-0.07367108
143	0x3f717971	0.9432593
144	0x3eef033f	0.46682164
145	0xbe955f6e	-0.2917437
146	0x3e919097	0.28430626
147	0x3e86d9f7	0.2633817
148	0x3f114e2f	0.56759924
149	0x3e74b9a5	0.23898943
150	0x3f17bdd4	0.5927403
151	0x3f5ff10e	0.87477195
152	0x3e8b3410	0.27188158
153	0x3f290d82	0.66036236
154	0x3e37c417	0.17945896
155	0x3c0be8fd	0.008539435
156	0x3f2777c5	0.6541713
157	0x3f6a71c1	0.91579825
158	0x3d88cdcb	0.06679877
159	0xbe28f788	-0.16500676
160	0xbc375a42	-0.011190953
161	0x3e354212	0.17700985
162	0xbd9efa45	-0.07762579
163	0x3baf1f56	0.0053443117
164	0xbe93942e	-0.2882399
165	0x3dd40d80	0.103541374
166	0xbea6c49b	-0.32571873
167	0x3f314ff3	0.6926262
168	0x3e76b40d	0.24092121
169	0xbe7287b8	-0.23684585
170	0x3f4147ae	0.755
171	0x3dbeca4b	0.09315928
172	0x3cc04d5f	0.023474393
173	0xbdca3a5a	-0.09874411
174	0xbe66d354	-0.22541553
175	0x3f0a7308	0.54081774
176	0x3f08d6da	0.5345284
177	0x3df09f1a	0.11749096
178	0xbe8b4dc0	-0.27207756
179	0xbb1b11eb	-0.0023661803
180	0xbbb44aa0	-0.00550206
181	0x3d67eb1b	0.0566207
182	0x3e3909fd	0.18070216
183	0xbb3f800e	-0.0029220614
184	0xbeb08180	-0.344738
185	0x3ef81e41	0.48460582
186	0x3f1d648d	0.61481553
187	0x3d8fb756	0.070173904
188	0xbe87b2d5	-0.26503626
189	0xbebcc936	-0.36872262
190	0xbcfb49a9	-0.030674772
191	0x3ee06d13	0.43833217
192	0xbe723790	-0.23654008
193	0xbed097fc	-0.40740955
194	0xbef036ae	-0.46916717
195	0x3e9cc1ba	0.30616552
196	0x3e3a4496	0.18190226
197	0xbe40417a	-0.18774977
198	0xbebca19c	-0.36842048
199	0xbe129990	-0.14316392

sequential_5/dense_17/MatMul f4 [9, 10]
0	0x3e4abca0	0.19798517
1	0xbb10c5b5	-0.0022090499
2	0x3ea46d09	0.32114437
3	0xbee6b575	-0.45060316
4	0xbeb41048	-0.35168672
5	0x3dded5e3	0.108806394
6	0xbed44ca1	-0.41464713
7	0x3f04e3df	0.51910204
8	0xbf6ddfcc	-0.9291961
9	0xbf1b551d	-0.6067675
10	0xbf0d6644	-0.5523417
11	0x3e042afb	0.12907021
12	0xbf9556d9	-1.1667129
13	0xbe72c5d5	-0.2370828
14	0xbe1fc7c7	-0.15603553
15	0x3f588f21	0.845934
16	0x3e2029f1	0.15641
17	0xbef7fed0	-0.48436594
18	0xbf7fd864	-0.9993956
19	0xbe72639f	-0.23670815
20	0xbf52ab82	-0.8229295
21	0xbef73e89	-0.48289898
22	0xbf175a3e	-0.59122074
23	0xbf553985	-0.8329089
24	0xbf3e3cd1	-0.7431155
25	0xbf65e12a	-0.897967
26	0xbece9293	-0.40346202
27	0xbecb3dc6	-0.39695567
28	0xbe090e3a	-0.13384333
29	0xbed9aad9	-0.4251316
30	0xbf00ffa9	-0.50390106
31	0xbf1a11cb	-0.601834
32	0xbf37f20f	-0.7185373
33	0xbef5caed	-0.48006383
34	0xbf265352	-0.64970887
35	0xbf3df36d	-0.74199563
36	0xbf42f200	-0.7615051
37	0xbefe1314	-0.4962393
38	0xbe09f14c	-0.13470954
39	0xbf0164c4	-0.5054438
40	0x3f647dbe	0.8925437
41	0xbf8fbaf4	-1.1228929
42	0x3ea2d344	0.31801808
43	0x3e997702	0.29973608
44	0xbeef49f7	-0.46736118
45	0xbed4c7af	-0.41558596
46	0x3ecb3dd3	0.39695606
47	0xbf4300a0	-0.7617283
48	0xbe7fbac2	-0.24973586
49	0x3dac3208	0.0840798
50	0xbd9d7229	-0.0768779
51	0xbf8ac4ca	-1.0841305
52	0x3f0c8afc	0.54899573
53	0x3d834df8	0.06411356
54	0x3e82bc3f	0.25534245
55	0xbe6b2731	-0.22964169
56	0xbe97ded1	-0.29662183
57	0xbf56e561	-0.83943754
58	0x3f57770b	0.8416602
59	0x3f4c5b2a	0.79826605
60	0xbed14a5e	-0.4087705
61	0xbf1cee2f	-0.6130094
62	0xbee368c8	-0.4441588
63	0x3f7fc278	0.9990611
64	0x3f7c9727	0.9866814
65	0xbe954efb	-0.2916182
66	0xbe88917c	-0.26673496
67	0x3ec98001	0.39355472
68	0x3d081fe7	0.03323355
69	0x3e9cf759	0.3065746
70	0xbeb2bd22	-0.34909922
71	0xbf0e36db	-0.5555245
72	0x3f016c43	0.5055582
73	0xbf39a850	-0.7252245
74	0xbec6a2cf	-0.38796088
75	0xbf46a8d4	-0.7760136
76	0x3ed6c918	0.41950297
77	0x3eee54e6	0.46549147
78	0x3ed83d86	0.4223444
79	0x3e92311e	0.28553098
80	0xbf6e037d	-0.9297407
81	0x3f24c6aa	0.6436564
82	0x3e32a620	0.17446184
83	0xbd06307e	-0.03276109
84	0xbec54b7f	-0.3853416
85	0xbe83e96e	-0.2576403
86	0x3ea62f3f	0.3245792
87	0x3e42bdbf	0.19017695
88	0xbf087e6e	-0.53317916
89	0xbe830212	-0.25587517
